gestures/model/keypoint_classifier/keypoint_classifier.tflite (tflite, 4600 bytes, 6 tensors)

arith.constant f4 [3, 10]
000000 20 9d 8f 3f 22 81 07 bf 86 be 23 3d 67 f5 ec bd
       1.1219826 -0.52931416 0.03997662 -0.11570244
000010 28 2e 76 bf c4 ac 5d bf 22 f6 98 bf 36 12 ac be
       -0.9616418 -0.86591744 -1.1950114 -0.33607644
000020 7c d3 9a bd 85 70 89 be f0 47 78 bf f0 aa 13 3d
       -0.07559869 -0.26843658 -0.9698477 0.03605169
000030 f2 2d 7d bf ea 56 d9 3c e2 81 1d bf 3f 08 d9 be
       -0.9889823 0.026530702 -0.6152631 -0.42389104
000040 a7 55 29 be 1f 9c 4a 3f b2 49 b7 be e4 c4 2a bf
       -0.1653658 0.7914447 -0.35798413 -0.6670668
000050 74 7f f8 bd 60 ac 95 bf 0d 2f de 3e 3a 98 4d 3f
       -0.12133685 -1.169323 0.43395272 0.80310404
000060 1d fe 52 3f 89 33 ef 3e f2 df e7 3e ae 83 8d be
       0.82418996 0.46719006 0.45288044 -0.27639526
000070 cc a2 28 3e 00 55 1b 3f
       0.16468352 0.60676575

arith.constant1 f4 [10, 20]
000000 0e d6 d1 3e 54 2c fa be 64 39 9a 3e ca d4 51 3f
       0.40983623 -0.48861945 0.3012191 0.81965315
000010 5c 9f 7a be 39 4d 81 3e f1 e4 6d 3e 17 4f a5 bd
       -0.24474853 0.2525423 0.23231865 -0.08071726
000020 83 8d 81 3e 9d 7e 2c 3f 4f eb 96 be a9 fd 42 3f
       0.25303277 0.67380697 -0.294764 0.76168305
000030 01 9e 24 3f 52 6a dd be 89 b1 83 3f d9 f0 92 be
       0.64303595 -0.43245178 1.0288554 -0.28699377
000040 49 6d 02 bf d0 e6 41 3f f2 96 95 be 0e e5 1b 3f
       -0.50948006 0.75742817 -0.29216725 0.60896385
000050 cb 8a 43 bf 1d 8d 00 be 23 86 f2 3e f3 d5 30 3e
       -0.76383656 -0.1255383 0.47367963 0.17269115
000060 0a 57 22 be ea 29 f3 3d f6 9e be 3e f1 2b 9b 3f
       -0.15853515 0.11873229 0.37230653 1.2122785
000070 3a 2d a7 3e fa 80 19 bd 6d 22 57 3f 20 a7 fe 3d
       0.32651693 -0.037476517 0.84036905 0.1243422
000080 b3 98 54 3c c9 11 b8 3e 55 b9 ad 3e 7c 29 cf 3d
       0.012975859 0.3595107 0.3393046 0.101153344
000090 87 04 4f 3f ca 7b 52 3d de 83 1d 3f 56 9c a9 3e
       0.80866283 0.051387586 0.6152934 0.33127087
0000a0 13 95 e4 3e 18 4a d3 3e 8f dc 19 be bd e3 dd 3d
       0.44644985 0.41267467 -0.15025543 0.10834453
0000b0 61 01 9d 3e 39 2d f4 3d a3 16 b1 be fb e5 bd be
       0.30665115 0.11922688 -0.34587583 -0.37089524
0000c0 40 02 a3 bd e0 a2 ff be 50 ad a0 be 72 1c f0 3e
       -0.079594135 -0.4992895 -0.31382227 0.46896702
0000d0 d9 30 95 3e 1b f6 b2 bd 8b e0 1f 3d 78 39 d6 3e
       0.2913883 -0.08738347 0.0390325 0.4184072
0000e0 61 01 e6 bd 93 1a e7 be 30 1f 26 3e 6f 99 e1 be
       -0.11230732 -0.45137462 0.16222835 -0.44062373
0000f0 d8 a7 18 be 0f 2b 9e bd 70 4b 9c bd c7 3a b1 3e
       -0.14907777 -0.077230565 -0.07631576 0.34615156
000100 82 09 08 3d 5c 58 c7 be 5f bd 72 3b 7e 9d 8b 3d
       0.033212192 -0.389346 0.0037039143 0.068171486
000110 06 1e bc be d2 4d c2 be 9f 49 c8 3d 19 44 1d 3f
       -0.36741656 -0.37949997 0.09779667 0.61432034
000120 2e c8 ca bd 50 88 50 be 63 65 01 3c 9e 24 6c 3f
       -0.099014625 -0.20364499 0.007897708 0.92243373
000130 76 b7 88 3b 92 51 8a be 12 22 76 3c 5b 16 f2 be
       0.004172261 -0.27015358 0.015022771 -0.4728268
000140 91 f3 99 bd 60 f3 ce bd 19 21 01 3e 33 fd 19 3f
       -0.0751716 -0.10105014 0.12610282 0.60151976
000150 16 2f 0a 3f f9 1a a4 be 5e 60 04 3e d2 20 1b 3c
       0.539781 -0.32051829 0.12927386 0.009468274
000160 13 79 24 be 75 3c 69 be a4 75 a4 ba 44 9d bc bd
       -0.16061811 -0.22776969 -0.0012547267 -0.092096835
000170 5f 59 b4 bd 35 91 91 be d4 36 04 be d5 77 45 3f
       -0.08806109 -0.28431097 -0.1291154 0.77135974
000180 38 19 c0 bc 89 db d0 be 77 6d 0a 3f 74 c8 4e bd
       -0.023449525 -0.40792492 0.5407328 -0.050484136
000190 4b 2d 4c 3c 36 a7 ea 3e 79 19 d7 3d e9 c4 cd 3e
       0.012461971 0.45830697 0.105029054 0.40189293
0001a0 39 b2 cd bc 67 3a d5 3e a6 6f c0 3e 60 55 a6 3e
       -0.025109397 0.4164612 0.3758518 0.3248701
0001b0 79 5f b3 be 02 f5 df be ba b2 a3 be 2f d1 bb 3e
       -0.35033777 -0.43741614 -0.31972295 0.36683032
0001c0 10 fe 80 3e 6d 61 6c be 94 32 ef be 13 b6 96 be
       0.25193834 -0.2308404 -0.46718276 -0.29435787
0001d0 75 7f d2 3b ba 5c e9 be dc 8c 15 3f 10 2d c0 be
       0.0064238855 -0.45578557 0.5841806 -0.3753438
0001e0 21 30 8f 3d ed f4 17 3f cd e8 c8 3e dc ca 39 3e
       0.06991602 0.593581 0.39240113 0.18143791
0001f0 fc f2 3c 3f 46 2f 58 be 31 d1 db 3d ed d2 a0 3d
       0.73808265 -0.21111783 0.107332595 0.07852731
000200 4f ee 5d be d7 f0 ae be 5b 6a 94 3e f8 4b 2e bc
       -0.21672939 -0.3416812 0.28987393 -0.01063823
000210 12 15 33 3e 23 27 34 3e cd 1e 92 bd ab 82 d1 3e
       0.17488506 0.17593054 -0.07134781 0.40920004
000220 94 bf 8a 3d d1 78 10 bf 79 27 8e 3e 6c 8f 82 be
       0.06774822 -0.5643435 0.2776449 -0.25500047
000230 e4 58 3a bf b8 27 0e be 25 e0 ea 3e bb 0e df 3d
       -0.72791886 -0.13882339 0.45874134 0.108914815
000240 19 29 c7 3c 59 1c 82 3e e9 51 96 be 4d 74 61 3f
       0.02431159 0.25412253 -0.29359367 0.88068086
000250 d1 ff 26 3f 8c 57 53 be 5b 12 36 3f a3 57 27 bf
       0.65234095 -0.20638865 0.7112176 -0.653681
000260 a8 1e bf bd c7 d4 43 3f 6e cf 0b bf 20 8a e5 bd
       -0.09332019 0.7649655 -0.5461339 -0.11207986
000270 07 be 53 3f 89 f7 7c be 1d 9f 37 3f ee b5 f6 be
       0.82711834 -0.24703802 0.7172716 -0.48185676
000280 6f ad 47 be 3d 2c 92 be 71 6b dd 3d 47 3b 09 bf
       -0.19499753 -0.28549376 0.108115084 -0.53606075
000290 f4 66 48 3e 6a fa d6 3e 10 f5 0c bd bb c8 c1 3c
       0.19570524 0.41987926 -0.034413397 0.023655286
0002a0 17 77 6c bc af 8b 8b 3e 5e 34 e0 be 11 83 cd be
       -0.01443269 0.27255008 -0.43789953 -0.40139058
0002b0 94 68 89 3e 49 68 ed bd 88 68 47 3c 95 ff f9 3d
       0.268376 -0.115921564 0.012170918 0.122069515
0002c0 70 03 89 be 23 31 d5 bd 64 93 70 be 23 71 3d 3d
       -0.26760435 -0.10409763 -0.23493725 0.046250474
0002d0 f2 19 dd bd 44 77 2c bc 80 39 bd 3d 53 df 1f bf
       -0.10795964 -0.010526482 0.09239483 -0.6245014
0002e0 c8 73 38 3f 21 18 c6 be 00 cc bd be 41 67 65 3e
       0.7205167 -0.38690284 -0.37069702 0.2240267
0002f0 3c d0 d8 bd 93 cd 10 bf a4 82 ae be 18 6a 06 3f
       -0.105865926 -0.5656368 -0.34084046 0.52505636
000300 98 24 c5 3e 81 5b 30 bd 2f 7a 5c be ce eb 10 3f
       0.3850448 -0.043056015 -0.21530984 0.5660981
000310 44 09 6d bc 27 11 2a bf b7 92 64 3d e8 bd e4 be
       -0.014467541 -0.6643242 0.05580398 -0.44676137

sequential_3_1/dense_10_1/BiasAdd/ReadVariableOp f4 [10]
000000 cd 0e 3e 3e 82 75 03 3f 20 32 62 bb 60 3e 9a be
       0.18560334 0.5135118 -0.003451474 -0.30125713
000010 65 6f 64 be 28 ee 06 be 31 ce 24 3e 39 d6 ea 3e
       -0.22308119 -0.13176787 0.16094281 0.45866564
000020 b6 ba 6b bd ee 40 32 be
       -0.05755111 -0.17407581

sequential_3_1/dense_11_1/BiasAdd/ReadVariableOp f4 [3]
000000 0a 68 5c 3e 9e 34 7b 3e 6a eb 99 be
       0.21524063 0.2453179 -0.3006242

sequential_3_1/dense_9_1/BiasAdd/ReadVariableOp f4 [20]
000000 79 4a 06 3d 3e 23 24 be 44 8c a8 bc d7 47 42 bd
       0.032785866 -0.16029069 -0.020574696 -0.047431793
000010 8c e9 65 be 9a b9 7d bd 72 76 56 bd af 30 f6 3c
       -0.22452372 -0.06194458 -0.052359052 0.030052511
000020 65 9b 8f 3e 47 e6 04 3e 9a 6c df 3d 0f 76 59 bc
       0.28048244 0.12978469 0.10909386 -0.013272776
000030 00 ab a6 bc 85 7d e4 3d 04 cd ba 3d 4a 65 54 be
       -0.020345211 0.111567535 0.09121135 -0.20741764
000040 51 46 86 3c 5b 4f 0a 3e 10 7d a1 3c 1d 5e 88 3d
       0.016390951 0.13506834 0.019712955 0.06658576

sequential_3_1/dense_9_1/MatMul i1 [20, 52]
000000 ff 14 0e 7f da 01 b5 15 b0 d8 e0 15 e3 10 d9 93
       -1 20 14 127 -38 1 -75 21 -80 -40 -32 21 -29 16 -39 -109
000010 dd c4 d3 c9 ef 1b c9 5d 23 d8 f8 dd fe fa fa 25
       -35 -60 -45 -55 -17 27 -55 93 35 -40 -8 -35 -2 -6 -6 37
000020 00 74 22 16 30 04 33 42 fc 62 26 6b 02 f4 2e 25
       0 116 34 22 48 4 51 66 -4 98 38 107 2 -12 46 37
000030 53 47 21 2c e0 00 e2 88 e8 f5 f2 b6 e6 2d 07 30
       83 71 33 44 -32 0 -30 -120 -24 -11 -14 -74 -26 45 7 48
000040 ce be 24 26 10 66 fc 3b 07 f5 8d 01 40 49 e9 2f
       -50 -66 36 38 16 102 -4 59 7 -11 -115 1 64 73 -23 47
000050 0f 16 1e dd 81 0d 34 0d d7 2c c4 10 2e d1 a9 33
       15 22 30 -35 -127 13 52 13 -41 44 -60 16 46 -47 -87 51
000060 11 12 d4 f2 b3 df f4 d4 f5 b8 48 95 00 26 6d 26
       17 18 -44 -14 -77 -33 -12 -44 -11 -72 72 -107 0 38 109 38
000070 21 37 45 d3 f5 7f c7 12 16 c1 ef 3f b1 91 02 c4
       33 55 69 -45 -11 127 -57 18 22 -63 -17 63 -79 -111 2 -60
000080 9f d4 75 72 00 9d c3 9a bc b6 06 4f 2a 8b 36 3a
       -97 -44 117 114 0 -99 -61 -102 -68 -74 6 79 42 -117 54 58
000090 8f 48 f9 2f c8 e9 65 1d 59 05 4a d2 13 04 f6 cd
       -113 72 -7 47 -56 -23 101 29 89 5 74 -46 19 4 -10 -51
0000a0 c2 ae d8 d2 f3 02 f3 75 d4 c7 1f c6 06 00 fc 2f
       -62 -82 -40 -46 -13 2 -13 117 -44 -57 31 -58 6 0 -4 47
0000b0 03 eb 81 03 46 48 e0 47 00 13 1b d8 93 5d 33 1e
       3 -21 -127 3 70 72 -32 71 0 19 27 -40 -109 93 51 30
0000c0 dc 53 f7 02 0f e7 c3 1a f0 43 c2 05 e6 03 11 e2
       -36 83 -9 2 15 -25 -61 26 -16 67 -62 5 -26 3 17 -30
0000d0 fd 2c 83 f9 d1 8e ff ec d7 30 ff 4c 96 d9 3a dd
       -3 44 -125 -7 -47 -114 -1 -20 -41 48 -1 76 -106 -39 58 -35
0000e0 26 46 10 62 24 1b c7 af 3f 7e dd 62 0c 3f 3a a2
       38 70 16 98 36 27 -57 -81 63 126 -35 98 12 63 58 -94
0000f0 81 16 6c 42 98 13 fd e8 43 86 9b 2f 06 27 a0 1c
       -127 22 108 66 -104 19 -3 -24 67 -122 -101 47 6 39 -96 28
