gestures/model/keypoint_classifier/keypoint_classifier.tflite (tflite, 6600 bytes, 6 tensors)

arith.constant f4 [5, 10]
-0.016640646 0.77971303 -0.27169847 -1.0435216 0.5957012 0.4509892 0.7203813 -0.10390066
-0.811981 -0.8060589 -0.41782585 -0.59827644 -0.46195355 0.16732351 -0.30935115 0.016766373
-1.00906 0.5208132 0.6601978 0.8135447 -1.7549027 0.54764134 -0.35659748 1.2670922
-0.43683347 -0.3027085 1.0046252 -0.88179326 0.49122268 -1.0119922 0.4021718 -0.5549964
0.5218303 -1.2931851 0.98524565 -2.0120962 -0.5483881 -0.10470449 -0.5265996 0.49479404
0.65422374 -1.3158637 -0.22958778 0.017893748 -0.6134089 0.26223636 0.02995488 -0.6874705
-1.1623898 0.6027497
00000000: f751 88bc 469b 473f 101c 8bbe 1e92 85bf
00000010: e07f 183f 0ee8 e63e e96a 383f dfc9 d4bd
00000020: fddd 4fbf e059 4ebf 45ed d5be a528 19bf
00000030: 2d85 ecbe db56 2b3e 4663 9ebe a259 893c
00000040: e128 81bf 0454 053f b902 293f 7744 503f
00000050: a7a0 e0bf 3932 0c3f f293 b6be 1430 a23f
00000060: a3a8 dfbe 9cfc 9abe 8f97 803f 34bd 61bf
00000070: 8a81 fb3e f688 81bf 76e9 cd3e 3e14 0ebf
00000080: ac96 053f 1787 a5bf 0f39 7c3f 2fc6 00c0
00000090: 2a63 0cbf 4f6f d6bd 3bcf 06bf a555 fd3e
000000a0: 357b 273f 396e a8bf 0f19 6bbe e995 923c
000000b0: 5e08 1dbf d843 863e f063 f53c 11fe 2fbf
000000c0: 30c9 94bf ce4d 1a3f

arith.constant1 f4 [10, 20]
-0.8000711 -0.69902027 0.67369527 -0.020155128 -0.37166363 -0.009373979 -0.13050112 0.40687582
0.42055553 -0.23989588 0.17892417 0.5812149 0.6781726 -0.5328776 0.5452078 0.39306897
-0.26836288 0.51336616 -0.007712115 -0.00073393254 -0.14081606 -0.27206805 0.27042657 0.8363395
0.12919174 0.25234896 -0.5456708 0.14544849 0.055999976 -0.15210219 -0.30699465 0.36668593
0.29256737 -0.19518717 -0.4380763 0.49423012 -0.42308706 -0.17155524 0.0037874256 0.06175126
0.307757 -0.4911008 -0.09760875 -0.6734395 -0.48662236 -0.05516166 -0.045906413 0.28319722
0.16027531 -0.08605891 0.10039548 -0.31123856 0.3754405 0.14210849 0.07975013 0.10855998
-0.1454012 -0.16832161 -0.3691977 -0.79023784 -0.44295302 -0.49336237 -0.14594005 0.16534944
-0.30290657 -0.5771753 0.2537587 -1.3597134 -0.6634214 0.4442493 -0.06491187 -0.5665241
-0.5802393 -0.31438497 0.15664572 -0.5517543 -0.41828874 0.6026195 0.3307475 0.0145062255
0.41770697 0.8154609 -0.93896836 -0.051236033 0.8718334 0.016757509 -0.46660486 0.95718354
0.59001774 -0.13911234 0.124545984 0.35788715 0.6774656 0.3257205 9.097623e-05 0.12355531
0.6745338 -0.1042949 -0.16272576 -0.003431805 -0.06649695 0.064368695 1.0848148 1.0617851
1.0547689 0.17983846 -0.008643022 0.22851132 0.12815478 1.0310779 -0.29269108 0.9929092
0.11495407 1.4034824 -0.664061 0.39141634 0.78863895 1.1154611 0.4791368 0.95216054
-1.0648053 -0.9936822 0.19776425 0.20369439 0.08623372 0.26370615 -0.44938502 -0.09345534
-0.20555389 0.10435486 -0.5585735 -0.74207973 -1.0930176 0.23442842 -0.59062314 -0.6484526
0.30338505 -0.11281487 0.27300718 0.0039759683 0.4834579 0.2962531 0.6738532 0.13684012
0.85779274 0.002271119 0.91205835 -0.17689542 0.454881 0.25220165 0.77998716 1.1361265
0.67315567 1.0309448 0.5576959 0.27211714 0.11376665 0.6525303 0.52323055 -0.08697948
-0.1367347 -0.1741604 -0.44301072 0.60095495 -0.33383775 0.9341368 1.0887885 -0.84341586
-0.16590953 0.2573895 0.6160398 -0.069918245 0.0848748 -0.35134995 0.4111736 -0.8117234
-0.5904083 0.050650127 0.8940755 0.39160427 -0.5185997 0.09012854 -0.16033247 0.08573125
-0.06156797 0.002995324 0.18703787 0.18893978 0.16800302 1.0916369 0.6010247 0.0445198
0.086519815 -0.06403667 -0.40096053 0.11699 -0.008469351 -0.9715573 -0.08376487 -0.009822688
00000000: 76d1 4cbf fef2 32bf 4b77 2c3f 5e1c a5bc
00000010: b24a bebe 5195 19bc 16a2 05be 0752 d03e
00000020: 0e53 d73e 44a7 75be e637 373e 80ca 143f
00000030: b89c 2d3f ab6a 08bf bd92 0b3f 5640 c93e
00000040: dc66 89be f76b 033f e9b5 fcbb 6165 40ba
00000050: 1632 10be 814c 8bbe 5a75 8a3e 581a 563f
00000060: d74a 043e e233 813e 15b1 0bbf 73f0 143e
00000070: 3b60 653d adc0 1bbe 672e 9dbe 42be bb3e
00000080: 64cb 953e 25df 47be 894b e0be bb0b fd3e
00000090: de9e d8be 2dac 2fbe 7536 783b e4ee 7c3d
000000a0: 5392 9d3e 9071 fbbe 19e7 c7bd 8866 2cbf
000000b0: 9126 f9be 31f1 61bd 5d08 3cbd 3aff 903e
000000c0: 361f 243e a73f b0bd 259c cd3d a95a 9fbe
000000d0: bd39 c03e e384 113e 0954 a33d b254 de3d
000000e0: 0de4 14be 805c 2cbe 7b07 bdbe 074d 4abf
000000f0: bdca e2be fe99 fcbe 4f71 15be 5d51 293e
00000100: 9216 9bbe c3c1 13bf a9ec 813e 170b aebf
00000110: fcd5 29bf a574 e33e 84f0 84bd b907 11bf
00000120: 908a 14bf 11f7 a0be bc67 203e c53f 0dbf
00000130: f129 d6be 4645 1a3f bc57 a93e 85ab 6d3c
00000140: b0dd d53e 0cc2 503f 3b60 70bf e0dc 51bd
00000150: 7930 5f3f 0b47 893c d5e6 eebe fb09 753f
00000160: 670b 173f 7773 0ebe f711 ff3d fc3c b73e
00000170: 636e 2d3f d6c4 a63e 7eca be38 910a fd3d
00000180: 3fae 2c3f 9198 d5bd 95a1 26be 22e8 60bb
00000190: 8e2f 88bd bcd3 833d 36db 8a3f 93e8 873f
000001a0: ab02 873f 9327 383e 769b 0dbc dffe 693e
000001b0: 023b 033e 5cfa 833f 9bdb 95be 4c2f 7e3f
000001c0: 0a6d eb3d 50a5 b33f e7ff 29bf b967 c83e
000001d0: 3ee4 493f 6ec7 8e3f 6b51 f53e cbc0 733f
000001e0: 8a4b 88bf f561 7ebf b682 4a3e 4395 503e
000001f0: 4e9b b03d 7e04 873e cb15 e6be 8365 bfbd
00000200: b87c 52be 00b8 d53d acfe 0ebf f0f8 3dbf
00000210: 00e8 8bbf 010e 703e 1433 17bf fd00 26bf
00000220: 4955 9b3e 7c0b e7bd 99c7 8b3e d748 823b
00000230: cb87 f73e 7cae 973e a581 2c3f d11f 0c3e
00000240: 4e98 5b3f 0ed7 143b a87c 693f 1324 35be
00000250: 2ae6 e83e 9320 813e 3dad 473f 986c 913f
00000260: ee53 2c3f 00f6 833f 29c5 0e3f f052 8b3e
00000270: 7dfe e83d 3a0c 273f 70f2 053f 4c22 b2bd
00000280: 2e04 0cbe 1b57 32be 4dd2 e2be 2fd8 193f
00000290: c8ec aabe 9723 6f3f 6c5d 8b3f 1aea 57bf
000002a0: 30e4 29be 8ec8 833e c9b4 1d3f 4c31 8fbd
000002b0: d7d2 ad3d 24e4 b3be 5985 d23e 1bcd 4fbf
000002c0: 0025 17bf 8276 4f3d 22e2 643f 5b80 c83e
000002d0: f3c2 04bf 5095 b83d 322e 24be de93 af3d
000002e0: b22e 7cbd 334d 443b db86 3f3e 6e79 413e
000002f0: fc08 2c3e c2ba 8b3f c1dc 193f 655a 363d
00000300: 4d31 b13d a825 83bd b34a cdbe 7498 ef3d
00000310: 08c3 0abc fbb7 78bf eb8c abbd 57ef 20bc

arith.constant2 f4 [5]
0.15964484 0.041085705 0.56212103 0.22713144 -0.7231127
00000000: f079 233e 7c49 283d 2ae7 0f3f 2595 683e
00000010: ea1d 39bf

arith.constant3 f4 [10]
0.016336476 0.4917326 0.06780372 0.94357663 0.2262174 0.3076071 0.39553294 0.28144336
0.8627034 0.03787164
00000000: 13d4 853c 60c4 fb3e addc 8a3d 3d8e 713f
00000010: 89a5 673e ae7e 9d3e 4b83 ca3e 5819 903e
00000020: 21da 5c3f 4b1f 1b3d

sequential_1_1/dense_3_1/BiasAdd/ReadVariableOp f4 [20]
-0.6866334 -0.5888857 -0.35082224 0.21882015 -0.5741822 -0.067362495 -0.64549154 -0.45579043
-0.2678274 -0.46855587 -0.8376695 -0.48529562 -0.6669955 -0.41984677 -0.7875061 -0.32490543
-0.41653666 -0.73404557 -0.5715879 0.16060111
00000000: 35c7 2fbf 37c1 16bf f99e b3be 6412 603e
00000010: 9bfd 12bf 59f5 89bd ef3e 25bf 5d5d e9be
00000020: ac20 89be 8ee6 efbe 8271 56bf ab78 f8be
00000030: 38c0 2abf 28f6 d6be 009a 49bf 015a a6be
00000040: 4b44 d5be 69ea 3bbf 9653 12bf 9e74 243e

sequential_1_1/dense_3_1/MatMul f4 [20, 42]
-0.22987828 -0.276584 0.017480899 -0.21067184 -0.004464242 -0.17624235 -0.16002165 -0.028212536
-0.09820891 -0.06327017 0.14014861 -0.072234064 0.12560731 0.0064318385 0.032887585 0.21931677
-0.019530771 0.27195752 0.114816785 -0.0777683 -0.012077464 -0.060627434 0.14485753 -0.17128824
-0.33845428 -0.39307678 -0.073672585 -0.06241364 0.10085965 -0.12026927 0.22056048 -0.34735486
-0.06985808 -0.48333377 -0.050419882 -0.088891014 0.08164075 -0.08316151 0.058611576 -0.26992753
-0.19876713 -0.41951302 0.06462729 -0.120628506 -0.21845007 0.7784981 -0.10798072 0.423009
0.071319744 0.4660057 0.055517267 0.27587777 -0.037317667 0.1045431 0.023027346 0.05611916
0.11220943 0.1094665 0.13625553 0.11746529 0.05600766 -0.021333076 0.0993663 0.121752225
-0.15855063 -0.5102085 -0.03501897 -0.62053 0.09261267 -0.12150939 -0.09351906 0.08877009
-0.28983372 -0.20330127 -0.26403755 -0.8077388 0.012326456 -0.09285796 -0.1197593 0.02257356
-0.027472312 -0.324839 -0.31173718 -0.79144907 0.27402955 0.2721271 -0.100185975 -0.0053785294
-0.18565576 -0.2777275 -0.30299288 -0.41775092 -0.43707198 -0.43144745 -0.04479651 0.1805313
0.016823353 4.129148e-05 0.027673574 -0.010053285 0.027820816 -0.054947384 -0.07913062 0.19635645
0.0042450046 -0.22205548 0.02262003 0.016981058 0.3635059 0.35172814 -0.20296031 0.2032854
0.039733622 -0.25933552 0.13766998 0.26785716 0.47613823 1.0803049 -0.12937279 0.073868066
0.055918172 -0.20200177 0.17003065 0.22469482 0.18795443 0.42661008 -0.10487488 -0.22354525
0.17202856 0.5576997 0.12240941 0.34561983 0.08470142 0.3792387 0.02614843 0.39296436
-0.07642661 0.124011025 -0.050202586 0.07394983 -0.04549565 -0.020324396 0.029156666 -1.6556822
-0.110208675 0.14003506 -0.015743148 0.11453648 0.028141646 0.08045514 0.049555562 0.08422019
-0.23985727 0.13849856 -0.14290844 0.11491204 -0.09128835 0.062379368 0.05607958 0.028525665
0.14762077 0.13060932 -0.12634994 0.11624432 -0.085642606 0.109836884 0.0468934 0.054995403
-0.09806901 -0.12552385 -0.12943666 0.15937857 -0.03853003 -0.26743817 0.022993745 -0.47371465
-0.0062463116 -0.44399023 -0.1301348 0.13080372 -0.07619643 0.011643267 0.0064225513 -0.07478602
0.012371097 -0.10140528 -0.19094431 0.108012356 0.024189563 -0.31374994 0.072893925 0.053671956
-0.2518461 0.5768972 -0.08628276 0.018991448 -0.040877014 -0.13749798 0.11928178 0.40909988
-0.28123742 0.8532882 -0.0347798 -0.1526237 0.0041969502 -0.020383513 0.06857535 0.3558586
0.072441176 0.9412054 -0.057314724 -0.29870087 -0.28091672 0.619374 -0.18644679 0.20537744
0.20391878 0.2408913 0.56873596 0.10753537 -0.6025497 -0.3986992 -0.27447063 -0.4161692
-0.18629734 -0.39989942 -0.09295239 -0.41778043 -0.65796494 -0.28196284 -0.11259213 0.0056009823
0.1878819 0.3129049 0.41948405 0.39079306 -0.5206966 -0.49851066 0.033317015 0.058092885
0.15376759 0.3501905 0.3249713 0.37819102 0.053712558 -0.7159807 0.08502405 -0.056420866
0.13713247 0.24962632 0.11348626 0.3880682 -0.009816289 -0.2585161 -0.027153146 0.21376108
00000000: 3665 6bbe 6b9c 8dbe 1a34 8f3c 5cba 57be
00000010: c748 92bb e078 34be b7dc 23be fa1d e7bc
00000020: c121 c9bd ca93 81bd 1e83 0f3e 74ef 93bd
00000030: 349f 003e 2cc2 d23b 22b5 063d 9394 603e
00000040: fffe 9fbc 043e 8b3e 1025 eb3d fd44 9fbd
00000050: 8ee0 45bc 7954 78bd 8855 143e 2f66 2fbe
00000060: e149 adbe 5c41 c9be a7e1 96bd 72a5 7fbd
00000070: 818f ce3d bc4f f6bd 9bda 613e 7fd8 b1be
00000080: c111 8fbd 8677 f7be 1485 4ebd 7e0c b6bd
00000090: 4433 a73d 9550 aabd b112 703d f133 8abe
000000a0: 9c89 4bbe 69ca d6be 505b 843d 140c f7bd
000000b0: 60b1 5fbe a74b 473f ff24 ddbd a394 d83e
000000c0: 1610 923d 4d98 ee3e 1366 633d da3f 8d3e
000000d0: 69da 18bd b11a d63d d8a3 bc3c 34dd 653d
000000e0: 0fce e53d f92f e03d 9286 0b3e a491 f03d
000000f0: 4a68 653d b4c2 aebc 8f80 cb3d 3b59 f93d
00000100: 195b 22be 069d 02bf 0d70 0fbd 0edb 1ebf
00000110: b6ab bd3d ead9 f8bd ec86 bfbd 18cd b53d
00000120: 1665 94be 352e 50be ee2f 87be f8c7 4ebf
00000130: e7f4 493c 502c bebd 5d44 f5bd 30ec b83c
00000140: 9d0d e1bc 4c51 a6be 049c 9fbe 689c 4abf
00000150: 9a4d 8c3e 3e54 8b3e 4e2e cdbd 603e b0bb
00000160: 8b1c 3ebe 4d32 8ebe e221 9bbe 73e3 d5be
00000170: e6c7 dfbe aee6 dcbe 8c7c 37bd 32dd 383e
00000180: 21d1 893c 6430 2d38 b1b3 e23c 89b6 24bc
00000190: 7be8 e33c 8210 61bd 3c0f a2bd aa11 493e
000001a0: ae19 8b3b 8362 63be a44d b93c dc1b 8b3c
000001b0: 721d ba3e b615 b43e d4d4 4fbe 0c2a 503e
000001c0: b9bf 223d a0c7 84be 5cf9 0c3e 9324 893e
000001d0: 64c8 f33e 6e47 8a3f 4d7a 04be 2448 973d
000001e0: 740a 653d 8dd9 4ebe 841c 2e3e 6616 663e
000001f0: 2077 403e a36c da3e a4c8 d6bd 0ce9 64be
00000200: 4128 303e 68c5 0e3f c9b1 fa3d 15f5 b03e
00000210: f077 ad3d 932b c23e 3b35 d63c a032 c93e
00000220: 8e85 9cbd 7ef9 fd3d 3aa1 4dbd 0273 973d
00000230: a659 3abd 597f a6bc f6d9 ee3c 65ed d3bf
00000240: 16b5 e1bd 5a65 0f3e c6f7 80bc 1a92 ea3d
00000250: 4f89 e63c aac5 a43d c6fa 4a3d a37b ac3d
00000260: 259d 75be 91d2 0d3e 9756 12be 0157 eb3d
00000270: 63f5 babd 8281 7f3d b4b3 653d a8ae e93c
00000280: e629 173e 73be 053e e161 01be 8111 ee3d
00000290: 6465 afbd 29f2 e03d 4b13 403d dc42 613d
000002a0: 68d8 c8bd 5389 00be 0b8b 04be 2334 233e
000002b0: aad1 1dbd a8ed 88be 615d bc3c ba8a f2be
000002c0: dcad ccbb b052 e3be 0f42 05be 69f1 053e
000002d0: e00c 9cbd 67c3 3e3c 4474 d23b 6a29 99bd
000002e0: 24b0 4a3c 92ad cfbd e886 43be 9535 dd3d
000002f0: 3129 c63c d5a3 a0be 6949 953d 20d7 5b3d
00000300: f9f1 80be 89af 133f 04b5 b0bd f493 9b3c
00000310: a86e 27bd 45cc 0cbe 024a f43d 8a75 d13e
00000320: 5afe 8fbe 1871 5a3f 4375 0ebd 6349 1cbe
00000330: 9286 893b 53fb a6bc 3c71 8c3d 1933 b63e
00000340: 0a5c 943d d6f2 703f d8c2 6abd 52ef 98be
00000350: 51d4 8fbe 4b8f 1e3f e8eb 3ebe 774e 523e
00000360: 16d0 503e 35ac 763e ae98 113f 813b dc3d
00000370: b240 1abf 4d22 ccbe 6a87 8cbe 2114 d5be
00000380: bbc4 3ebe 9ebf ccbe d35d bebd 51e7 d5be
00000390: 6470 28bf 6f5d 90be b496 e6bd 7288 b73b
000003a0: 1d64 403e 1235 a03e 9dc6 d63e 0716 c83e
000003b0: 5f4c 05bf ca3c ffbe 6c77 083d cef2 6d3d
000003c0: 4075 1d3e 2b4c b33e a362 a63e 41a2 c13e
000003d0: b301 5c3d 834a 37bf 1721 ae3d 9119 67bd
000003e0: 746c 0c3e 0b9e 7f3e 7c6b e83d e0b0 c63e
000003f0: 80d4 20bc 395c 84be 4670 debc 2fe4 5a3e
